MLtes/model_vericheck.tflite (tflite, 66908 bytes, 4 tensors)

sequential/embedding/embedding_lookup f4 [1000, 16]
000000 e4 24 62 bd 93 83 c8 bc ab 3b 2b bd 96 cd be bc
       -0.055210963 -0.024476802 -0.04180495 -0.02329139
000010 5d b9 22 bd 47 99 dd bc fa d5 90 bc 4d e7 9a bb
       -0.039727557 -0.027050627 -0.017680157 -0.0047272802
000020 70 87 2b 3d a8 f5 0c bd 34 8c 46 bc f6 bf 24 3b
       0.04187721 -0.034413964 -0.012118388 0.0025138832
000030 ad 35 cf bc b5 68 e5 bc ca 1f 17 bd 6b ae 87 bc
       -0.02529415 -0.02800403 -0.03689555 -0.016562661
000040 80 7d 32 bd fa 30 08 bd 1a 9c 2b bd b3 c4 45 bd
       -0.043576717 -0.033249833 -0.041896917 -0.04828329
000050 ad 1b 4b bd e7 d4 a1 bc d0 00 40 bb 87 7c ae bc
       -0.04958694 -0.01975484 -0.002929736 -0.021299614
000060 ac 14 a1 bb f7 23 1b bd 68 6c 46 bc 20 14 f3 bc
       -0.0049157944 -0.037876096 -0.012110807 -0.029672682
000070 f0 a3 3d 3b 20 23 e0 bc 45 8b 12 bd 7a 7f 1d bd
       0.0028936826 -0.027360499 -0.03577735 -0.03845165
000080 be d0 4c bd 1d aa 99 bc 3d de 36 bd ab fe c6 bc
       -0.05000376 -0.018757874 -0.044645537 -0.024291357
000090 b6 a9 2d bd 17 2a 2f bd 40 77 7a 3a 7a f5 09 bd
       -0.042398177 -0.04276475 0.0009554513 -0.03368137
0000a0 19 33 2b bc cf 84 0a bd 87 90 37 bc 0a 84 43 3b
       -0.010449194 -0.033818062 -0.011203892 0.002983334
0000b0 29 30 20 3c 28 24 d3 bc 9a 9d 0b bd cc 0a 7f bc
       0.009777107 -0.025774077 -0.034085847 -0.015566539
0000c0 dc 2c 3f bd 55 7d b4 bc 67 a7 3e bd da 00 35 bd
       -0.04667364 -0.02203242 -0.046546366 -0.044190265
0000d0 fb 48 1f bd f3 15 ce bc 06 29 06 bd 47 57 3a bd
       -0.03888796 -0.02515695 -0.032753967 -0.04549339
0000e0 98 52 a9 bb 79 98 fe bc 1a b7 33 bd ad b7 d7 bc
       -0.0051673166 -0.031078564 -0.04387579 -0.0263327
0000f0 00 91 64 bc a7 b5 bc bc c4 9b 05 bd 84 c2 8a 3e
       -0.013950586 -0.023035837 -0.032619253 0.2710153
000100 97 26 2e bd 53 10 11 bd 5a 9b 2e bd 0c 9c 4d bc
       -0.04251727 -0.03541596 -0.042628624 -0.0125494115
000110 98 d2 1a bd 55 45 10 3f e3 2b 27 3c ff 9f 15 3f
       -0.037798494 0.5635579 0.0102033345 0.5844726
000120 b3 1d 7a 3b 25 8a d4 bc 8d 82 de bc 6e f1 8f 3c
       0.0038164675 -0.025944779 -0.02716186 0.017571177
000130 50 d2 ba bb 16 2f 29 3f f1 e9 d4 bc a2 02 e6 bb
       -0.0057013407 0.6608747 -0.025990458 -0.007019357
000140 7d 93 4c bd 76 39 08 bd e3 8c 37 bd c1 64 46 bc
       -0.049945343 -0.033257924 -0.044812094 -0.012108983
000150 af ae 29 bd 3b 2a 8e bc 00 b0 a2 39 80 46 71 bc
       -0.041426357 -0.017354121 0.00031030178 -0.014726281
000160 cf 64 12 bc 88 78 e2 bc 3d c9 eb bb 70 e2 14 bd
       -0.008935167 -0.027645364 -0.0071956203 -0.03634876
000170 8d ec 9e bc 27 15 dd bc 6d c9 fc bc 48 ab 3a 3a
       -0.019399906 -0.026987625 -0.030857766 0.000712086
000180 a0 7a 31 bd da 3f 86 bc 88 8d 2e bd 01 64 60 bc
       -0.043329835 -0.016387869 -0.042615443 -0.013695718
000190 50 9f 2e bd 74 68 6c bc 5a c0 e1 bc bd a3 19 bd
       -0.0426324 -0.0144292 -0.02755754 -0.03750967
0001a0 9d f5 29 bd cd 72 cf bc a7 53 25 bc 1a 3a db bc
       -0.041494 -0.025323296 -0.010090745 -0.026761103
0001b0 60 2b b8 bc 43 02 90 bc 53 f7 d6 bc 7a 4c a2 3a
       -0.02248162 -0.017579203 -0.02624098 0.0012382411
0001c0 6e 46 3c bd 84 0e 91 bc 2c 77 1d bd 37 b7 5d bc
       -0.045965604 -0.017707117 -0.03844373 -0.013532451
0001d0 63 07 1f bd 3d be 42 bd 43 ec 0e bd 27 43 ef bc
       -0.038825404 -0.047544707 -0.034893285 -0.029206825
0001e0 9e 4d 85 3e 4e eb fc bc f4 8b 67 bc be 9e 0e 3c
       0.2603578 -0.03087392 -0.0141324885 0.008704839
0001f0 35 af 2a 3b a0 33 0f bd 13 77 d6 bc 9a 0d e4 bb
       0.0026044373 -0.034961343 -0.026179826 -0.0069596292
000200 d5 e0 32 bd a8 06 4c b9 0e db 35 bd e0 3b 33 bd
       -0.043671448 -0.00019457436 -0.04439836 -0.043758273
000210 14 dd 2f bd be 53 87 bc 35 1f 5a 3c 1c e7 b1 3e
       -0.042935446 -0.016519424 0.013313104 0.34746635
000220 1d c9 0b 3e 56 80 c9 bc c4 58 04 bd d3 2e ef bc
       0.13650937 -0.024597328 -0.032311216 -0.029197132
000230 14 a7 00 bd c9 fa c7 3e eb 0d d4 bc 5a 09 79 3e
       -0.031409338 0.3905852 -0.025885543 0.24319974
000240 20 82 2a bd 66 17 85 bc de aa 3d bd e4 59 0d bc
       -0.041628003 -0.016246509 -0.04630553 -0.008627389
000250 30 1c 20 bd e3 4d 6c bc a3 17 1b bd 36 ec 05 3e
       -0.03908938 -0.0144228665 -0.03786434 0.13078389
000260 9a ef 8c bc 15 31 c7 bc d6 26 ed bb a3 b7 2a bd
       -0.017204095 -0.024315396 -0.0072372956 -0.041679036
000270 3b dd 28 bb 1b c9 9b bc 06 d6 26 bd d5 d9 9d 3d
       -0.002576663 -0.019016793 -0.040731452 0.07707564
000280 07 7e 36 bd 27 c2 2b bc b7 75 1e bd 60 7e ac ba
       -0.044553783 -0.010483301 -0.03868648 -0.0013160221
000290 5d e3 1c bd be 10 b7 bc b0 f1 84 3b 16 df 5a 3e
       -0.038302768 -0.02234685 0.0040571317 0.21374163
0002a0 03 d8 2c bb 59 19 d8 bc 67 6b 9b bc b0 da 03 bd
       -0.002637387 -0.026379274 -0.018972112 -0.03219098
0002b0 83 7f dd 3e 10 31 05 bd 1d 69 45 bd 28 26 78 bc
       0.43261346 -0.032517493 -0.048195947 -0.015145816
0002c0 00 91 2a bd 7a fb 96 bc 64 3d 35 bd cd 62 65 bb
       -0.04164219 -0.01843046 -0.044248 -0.0035001517
0002d0 8c f6 3f bd a6 6a 23 bd 18 30 c5 3b 3a ad d1 bc
       -0.046865985 -0.03989663 0.006017696 -0.025595296
0002e0 b1 ce 69 3b 00 e8 44 bd 16 20 2b bd c7 d9 c9 bc
       0.0035676176 -0.048072815 -0.041778646 -0.024639977
0002f0 00 78 28 bb 3a 64 be bc 3c 36 1d bd 73 bd b0 bc
       -0.0025706291 -0.023241151 -0.0383818 -0.021574711
000300 f4 b3 fd 3d 0e a7 90 3c bc ad a6 3d 4a 53 2d bd
       0.12387839 0.017657783 0.08138606 -0.04231576
000310 d4 80 d7 3e 90 5c ec bc 80 a1 d1 bb 8e d6 e1 3c
       0.42090476 -0.028852731 -0.006397426 0.027568128
000320 d5 3c 02 3f 50 21 46 bd a2 84 41 bc d3 6f dd bc
       0.5087407 -0.048371613 -0.011811407 -0.027030861
000330 40 ec 06 bc 90 54 af bc fa 39 05 3f 4d 85 07 bd
       -0.008235037 -0.021402627 0.5204159 -0.03308611
000340 c0 6f 8f bc eb 3d 90 3e 60 be e5 bc fe 26 11 3f
       -0.017509341 0.2817224 -0.02804488 0.5670012
000350 1a cb 1c bd da 31 c1 bc 00 15 fd bc 28 47 33 3c
       -0.03827963 -0.023583341 -0.030893803 0.010942258
000360 3a f7 4b bd 02 66 f1 3d c1 b8 8e bc e8 ca d4 bb
       -0.04979632 0.117870346 -0.017422082 -0.006493915
000370 45 12 89 3b cc 1a 05 bd 34 1e 52 bc 80 97 9c 3b
       0.004183086 -0.03249626 -0.012824584 0.0047788024
000380 3b 14 2c bd f0 18 26 bc 36 c4 1c bd 71 2c e5 bb
       -0.04201148 -0.0101377815 -0.03827306 -0.006993823
000390 d3 56 40 bd ec 3a 87 bc 6e a6 88 3c e8 5f 97 bb
       -0.046957802 -0.016507588 0.016680922 -0.004619587
0003a0 00 e7 33 bb 0e 14 0e bd 8f 37 59 3e 91 ce 3c 3c
       -0.002745092 -0.034687094 0.212126 0.011523859
0003b0 d7 ee 4b bd f3 e6 3f bd f1 53 18 bd 53 58 e5 bc
       -0.049788322 -0.04685111 -0.037189428 -0.027996218
0003c0 8d 1e 36 bd 6a a2 31 bd 19 5c 2d bd db 74 4c bc
       -0.04446273 -0.04336778 -0.04232416 -0.012479032
0003d0 aa 42 25 bd 7c 59 71 bc d2 22 af 3c e8 79 9d bb
       -0.04034678 -0.014730807 0.021378908 -0.004805792
0003e0 ed cd ea bc 88 72 c7 bc 95 a9 3e bc 97 68 ae 3b
       -0.028662646 -0.024346605 -0.011637111 0.0053225267
0003f0 d9 e3 0b 3f ec 55 c4 bc cf 1d 0f bd ca 2f 28 bd
       0.5464454 -0.023966752 -0.034940537 -0.0410612

sequential/dense/BiasAdd/ReadVariableOp f4 [6]
000000 dd b0 9f 3d d7 ea ee bc 21 c8 c3 3e 3e 2f ca bd
       0.07797406 -0.029164715 0.38238624 -0.09872292
000010 14 18 25 3f 29 81 38 3b
       0.64489865 0.0028153157

sequential/dense/MatMul f4 [6, 16]
000000 60 76 21 3f 88 63 38 3f be 22 3e 3f bc 74 0b 3f
       0.6307125 0.7202687 0.7427176 0.54475
000010 f4 51 4b 3f 78 a6 ff be e0 96 1f be ab b8 75 3d
       0.79421926 -0.49931693 -0.15584898 0.059990566
000020 02 3b db 3e c4 d7 f5 3e 3a d0 18 bf c1 b2 8e 3d
       0.42818457 0.4801618 -0.5969273 0.06967688
000030 b7 53 86 3e 13 e1 2b bf 41 3d 67 3f f3 35 32 3f
       0.26235744 -0.6714031 0.9032784 0.6961357
000040 3d 14 13 3e 38 0b 60 3f d3 6f 1b 3f e9 43 69 3f
       0.14363189 0.8751712 0.60717505 0.9111925
000050 e1 3e c1 3e 75 28 30 bf fa d3 79 bd 58 9a 3e 3f
       0.37743285 -0.6881173 -0.060993172 0.7445426
000060 83 c8 6e 3f 9b 2c 49 3f 69 69 da be 4c d5 50 3f
       0.93274707 0.7858369 -0.42658547 0.81575465
000070 f9 97 97 bd fe 4d 47 bf 15 de 73 3e df fc 0c be
       -0.07402033 -0.7785338 0.23815186 -0.13768338
000080 c7 d7 f9 be be e9 6c be 1c 82 1e bf 7b 25 91 3e
       -0.48797438 -0.2313604 -0.6191728 0.28348908
000090 3d 69 11 bf e1 b4 aa 3c 8f 72 24 3f 0d e4 57 3e
       -0.56801206 0.020838203 0.642373 0.21083088
0000a0 12 da 4f 3f 6b 5d dd be 7a 02 c6 3e 1d 1c 01 3e
       0.81192124 -0.43235335 0.38673764 0.1260838
0000b0 eb c6 05 3f 83 76 6e bd a7 fb 20 bf f0 b9 4d 3f
       0.5225665 -0.05821849 -0.6288399 0.80361843
0000c0 92 6f 3c 3d 83 92 fb bd ba 2d ab 3e 89 01 b5 3d
       0.04600484 -0.12283804 0.33433324 0.088381834
0000d0 47 d7 66 3e c2 71 55 3d 99 65 20 3e 57 5f 0b bf
       0.2254306 0.05211044 0.15663756 -0.5444235
0000e0 e8 64 70 3d d1 11 0e bf 0f ee a2 3e 36 a8 09 bf
       0.05868998 -0.55495936 0.3182225 -0.53772295
0000f0 13 29 0b bf 41 e8 f0 3d 88 02 11 bf be 77 a6 be
       -0.5435955 0.11763049 -0.5664449 -0.3251323
000100 a2 95 40 bf 7b c6 d1 3e 3a 55 17 bf d2 cd 7b 3e
       -0.7522832 0.4097174 -0.5911442 0.24590233
000110 13 84 eb be 98 64 18 3f ac d6 84 3f 4c 42 71 3f
       -0.45999202 0.59528494 1.0378013 0.94241786
000120 3a 40 e0 3e 40 d8 82 bd a4 b7 89 3f 49 19 12 3f
       0.43799 -0.06388903 1.0759168 0.5706983
000130 25 d8 87 3f c7 07 97 3f be 2f 5a be 0f 62 5a 3d
       1.0612837 1.1799248 -0.21307275 0.053316172
000140 1a df 49 3f 69 5e 03 3f ba 2d 38 3f a0 91 bc 3e
       0.7885605 0.51315933 0.71944773 0.36829853
000150 ca d4 f8 3e 74 c8 0c bf fe 51 04 3f e0 ff b1 3e
       0.48599845 -0.5499337 0.5168761 0.3476553
000160 cf 68 16 3f 3e 0a 0a 3f 11 f0 25 bf 0b 4e 19 3f
       0.58753675 0.5392188 -0.6481944 0.5988471
000170 3d b2 c4 be bf 86 d3 be ce 4a 33 3f 7c 43 70 3e
       -0.38417235 -0.4131374 0.7003602 0.23463243

sequential/dense_1/MatMul f4 [1, 6]
000000 b9 3e 8f 3f 69 f4 40 3f f9 78 4c bf ef db 47 3f
       1.1191016 0.7537294 -0.7987209 0.7806997
000010 83 1b 33 bf 09 11 b0 3f
       -0.69963855 1.3755199
